aicl434llms/ch1/model.pth (torch, 20014 bytes, 7 tensors)

embedding.weight f4 [63, 32]
000000 00 00 00 00 00 00 00 00 00 00 00 00 00 00 00 00
       0.0 0.0 0.0 0.0
000010 00 00 00 00 00 00 00 00 00 00 00 00 00 00 00 00
       0.0 0.0 0.0 0.0
000020 00 00 00 00 00 00 00 00 00 00 00 00 00 00 00 00
       0.0 0.0 0.0 0.0
000030 00 00 00 00 00 00 00 00 00 00 00 00 00 00 00 00
       0.0 0.0 0.0 0.0
000040 00 00 00 00 00 00 00 00 00 00 00 00 00 00 00 00
       0.0 0.0 0.0 0.0
000050 00 00 00 00 00 00 00 00 00 00 00 00 00 00 00 00
       0.0 0.0 0.0 0.0
000060 00 00 00 00 00 00 00 00 00 00 00 00 00 00 00 00
       0.0 0.0 0.0 0.0
000070 00 00 00 00 00 00 00 00 00 00 00 00 00 00 00 00
       0.0 0.0 0.0 0.0
000080 ed 97 60 bf 36 cf 96 3f 72 a5 97 bf f0 f7 8c 3f
       -0.8773182 1.1781986 -1.1847365 1.1013165
000090 8d b0 11 3f 24 13 d2 be 59 56 30 3f 37 7e 0e 3f
       0.5691002 -0.41030228 0.68881756 0.5566134
0000a0 ae 21 51 be 42 84 31 bf b2 81 ba ba 17 ea 10 be
       -0.20423004 -0.69342434 -0.0014229326 -0.14151798
0000b0 2b 8a 54 bf 5c 93 44 bf 79 5b f3 3e 2e 4e 0c bf
       -0.8302333 -0.7678735 0.47530726 -0.5480679
0000c0 e5 f5 49 3f 02 7e 92 be a9 c2 bc 3f 03 51 4b 3f
       0.7889083 -0.2861176 1.4746906 0.7942049
0000d0 80 b3 b1 bf 2a 55 64 be 5f 6b fb bf b7 97 95 bf
       -1.3882904 -0.22298113 -1.9642142 -1.1686925
0000e0 08 a4 c7 bf a8 f4 76 bf 5f 52 0e 40 65 96 24 c0
       -1.5596933 -0.96467066 2.2237775 -2.5716794
0000f0 77 1e 38 bc e6 7e df 3f cc 7f ea be 87 78 27 c0
       -0.011237732 1.7460601 -0.45800626 -2.6167314
000100 39 53 ad 3f 4e ed 7b bf 4a ec bf bf e2 1e 30 bf
       1.3541023 -0.98408973 -1.4993985 -0.68797123
000110 a8 00 76 3e 54 5e 05 3f d7 19 54 3f 5b dc 55 3e
       0.24023688 0.5209706 0.8285193 0.2088484
000120 dc 7b 3d bf b4 58 9c 3f 6d 50 d7 bd 8f c2 88 3f
       -0.7401712 1.221457 -0.10513387 1.0684375
000130 03 6e 80 3f 76 79 02 3f fe 5e 21 bf 81 0e 85 3f
       1.0033573 0.50966585 -0.6303557 1.0395051
000140 3c 23 f8 3f b2 55 cb bc 1b 50 2e bf eb 87 9c be
       1.9385753 -0.024821136 -0.6809098 -0.30572447
000150 ec 5e 62 bf 50 90 0f bc e6 90 7d bf b2 ae e1 be
       -0.8842609 -0.008762434 -0.9904922 -0.44078594
000160 e7 c0 a7 3f f2 46 9a bf 4b 83 86 be a4 22 67 3e
       1.3105744 -1.2052901 -0.26272044 0.22571808
000170 8f bc 3d 3f 61 e3 28 40 6e 0a 43 3f bc 71 0c 3f
       0.7411584 2.638878 0.7618779 0.54861045
000180 29 9e 1d 3f 7d 97 1e bf b6 23 15 c0 27 7c bc bd
       0.6156946 -0.619499 -2.3303046 -0.09203368
000190 31 e5 85 bd 88 56 6c bf b2 24 c9 bf 30 72 18 bf
       -0.065378554 -0.92319536 -1.5714324 -0.59549236
0001a0 52 d4 c9 be 3d f1 d8 bf 3f 9e 5b bf e2 4b 71 bf
       -0.394198 -1.694862 -0.8578834 -0.94256413
0001b0 0d 9b a9 bf 24 f3 87 bf 66 cc f0 bf 32 9a c3 be
       -1.3250443 -1.0621076 -1.8812377 -0.3820358
0001c0 d2 51 9b 3d 8d e5 2e bf 21 7d 02 3f 85 55 a1 bf
       0.07583965 -0.68319017 0.5097218 -1.2604223
0001d0 7b d4 5a 40 72 2f 50 bf a5 db cf 3f a5 e0 56 3e
       3.4192188 -0.81322396 1.6238905 0.20984133
0001e0 54 9b 1b 3f fa 55 5e be e1 35 a0 3f b1 6f 1d 3f
       0.60783887 -0.21712485 1.2516443 0.6149855
0001f0 20 fe c7 3f 26 c3 ef be d7 e5 3b bf d1 d4 df 3e
       1.5624428 -0.46828574 -0.7339758 0.43717054
000200 5e 01 f0 bf b0 1f 75 be b0 21 0a c0 b6 6f 8f 3f
       -1.8750417 -0.23937869 -2.1583061 1.1205966
000210 fd 12 b4 bc dd 0a 25 bf c9 91 02 40 0a fa 82 3f
       -0.02198171 -0.644697 2.040148 1.0232556
000220 50 9c de be 32 e6 78 bf 56 f0 e7 bf 25 2c 56 bf
       -0.43478632 -0.9722625 -1.812022 -0.8366111
000230 1b 18 a7 be 0e f1 14 bc ae 57 db bf a0 ce cb be
       -0.3263558 -0.009090675 -1.7136133 -0.3980608
000240 f7 e2 51 3e 6d 6e a1 bf aa c1 e8 be 4f ee 2c 3f
       0.20496736 -1.2611824 -0.45460254 0.6755113
000250 c4 39 19 40 21 72 46 3f 61 d6 ea 3f 77 1e af bf
       2.3941507 0.77517897 1.8346673 -1.3681172
000260 06 15 db 3e 6a 9e 39 bf fa 02 9f 3f 82 c4 44 bd
       0.42789477 -0.72507346 1.2422783 -0.048038967
000270 4a f3 a1 3f f8 d9 b8 3c 64 71 26 40 f8 29 76 3f
       1.2652371 0.022564873 2.6006708 0.9615779
000280 17 b7 88 3e 46 60 e5 be cb 74 e3 3d 9e 35 bd 3f
       0.26702186 -0.44800013 0.11106261 1.4781988
000290 16 a5 09 bf 67 86 c5 3f bc 87 08 bf 16 ae 25 bd
       -0.53767526 1.5431641 -0.53332114 -0.040449224
0002a0 af fc 21 3f 82 e5 0a c0 c2 6d d8 3f f9 5f e1 3c
       0.6327619 -2.170258 1.6908495 0.027511584
0002b0 75 de 85 be 3a ca 03 be eb 77 87 3e 90 95 e0 bf
       -0.26146284 -0.12870112 0.26458678 -1.7545643
0002c0 a4 c4 66 bf c8 01 62 bf 1f 95 b3 bb b3 24 29 3f
       -0.901438 -0.8828397 -0.005480423 0.66071624
0002d0 99 d8 b1 3f f7 a5 ba bf 9c 84 a8 3f a6 49 7a 3f
       1.3894225 -1.4581898 1.3165469 0.9776863
0002e0 85 5e 10 c0 b2 c7 f3 be bf 09 d8 bf 5d 25 00 c0
       -2.255769 -0.47613293 -1.6877974 -2.0022805
0002f0 75 74 0b 40 03 03 56 bf 40 3a 9f bf 1a 80 b6 3f
       2.178983 -0.83598346 -1.2439651 1.4257843
000300 79 d4 62 3f ad 69 92 3f 5f 18 be bf e8 ff 43 3f
       0.8860546 1.14385 -1.4851187 0.76562357
000310 54 b6 5c be 10 2c d4 bf b8 44 75 bf e6 3d 15 be
       -0.21553928 -1.6575947 -0.9580798 -0.14574394
000320 32 9a 8b 3c 59 1e 1e 3f 53 a8 9a be d6 5a 6c bf
       0.0170413 0.61765057 -0.30206546 -0.92326105
000330 5b b4 1e 3f e5 0d 2a 3f a2 1d 6b 3f 6c cc 0b 40
       0.6199395 0.6642745 0.9184209 2.184352
000340 f9 c1 c2 3e fb ab 25 bf 4f ad 7e be 16 f8 f2 3d
       0.38038614 -0.64715546 -0.248708 0.11863725
000350 e6 6f 3e 3e 3c 92 3e be 43 3b 32 bf 78 91 6a bd
       0.18597373 -0.18610471 -0.69621676 -0.057267636
000360 18 0a 00 40 23 67 f7 bf e0 1d 80 bd 0d 24 2d 3d
       2.000616 -1.932835 -0.06255698 0.04227071
000370 de 22 19 3f 80 85 ae be f3 59 e4 3f 37 02 83 3f
       0.5981883 -0.34086227 1.783995 1.0235051
000380 c0 13 db bf 6b f4 d6 bf 5f 7b 52 3f f1 9a 9e bf
       -1.7115402 -1.679334 0.822195 -1.2391034
000390 04 ce 7f bf 5f f3 16 c0 8c 19 ff be ee 93 95 be
       -0.9992373 -2.3586042 -0.49824178 -0.29214424
0003a0 ed b4 f4 3f fa 04 8f be d7 de 13 c0 27 b4 cf bf
       1.9117714 -0.27933484 -2.310476 -1.6226853
0003b0 db 07 f5 3e 99 81 c7 3d df b8 98 bf a1 20 60 bf
       0.47857556 0.09741516 -1.1931418 -0.8754979
0003c0 e8 84 30 3f 5c 50 04 40 a9 ba 73 3f 77 45 b2 3f
       0.689528 2.0674047 0.95206696 1.3927449
0003d0 33 6e f7 be 44 9f b7 3e d2 7c 75 3c f6 95 98 bf
       -0.48326263 0.35863698 0.014983373 -1.1920764
0003e0 9f f4 e5 3e 5f fd 1b 3d cf eb 12 3e 74 01 9a be
       0.44913194 0.03808343 0.14347766 -0.30079234
0003f0 18 00 83 be 98 8b 95 bf 2c b4 55 bf 06 04 9f bf
       -0.2558601 -1.1683226 -0.83478045 -1.2423103

rnn.weight_ih_l0 f4 [32, 32]
000000 fd db 93 be 60 b1 86 3d 33 34 6d 3c 30 61 d5 3e
       -0.28878775 0.065768 0.014477777 0.4167571
000010 e8 65 6a be 2a da 90 be a8 09 10 bf f0 9c ea 3e
       -0.22890437 -0.28291446 -0.56264734 0.4582286
000020 3f 96 3d 3d 31 86 66 bb 8f 36 ac bc 1f 5a 9f be
       0.046285864 -0.00351752 -0.02102211 -0.31123444
000030 e9 5e 86 be b3 48 6f 3e 74 3a 11 3e 05 cc 9e 3c
       -0.26244286 0.23367576 0.14182454 0.019384393
000040 62 af 3b 3e b2 59 37 be 29 9f 85 bd e8 27 5f bc
       0.18328622 -0.1790531 -0.06524498 -0.013620354
000050 59 42 f1 3e ba d0 22 be 10 1d aa 3e 49 44 56 3e
       0.47120932 -0.15899935 0.33225298 0.20924486
000060 bc d8 9e 38 94 8d 1b bc 9d 7c 8e be 88 5e a4 bd
       7.574397e-05 -0.009494204 -0.27829447 -0.08025843
000070 82 d6 0e 3f 38 d9 2f 3b 44 5c d6 3e 0e ce d2 3c
       0.5579606 0.0026832353 0.41867268 0.02573302
000080 98 82 89 3e e1 1e 23 3e 5c 2b 99 be 3e 42 2b be
       0.26857448 0.15929748 -0.29915893 -0.16724488
000090 58 e6 af bd 4c 69 ae bc b3 b4 df 3d 95 a9 d7 be
       -0.085888565 -0.021290444 0.109231375 -0.42121568
0000a0 5c a2 01 3f 64 3e 05 be c3 c1 59 3d 09 24 18 3d
       0.50638366 -0.13012081 0.0531633 0.03714374
0000b0 55 c8 39 be 71 8b fa 3b 2e 5a c2 bd 29 fa 00 be
       -0.18142827 0.0076460172 -0.09489857 -0.12595429
0000c0 a4 72 02 3e 24 8a 26 3e eb 5c 41 be ed 67 0d be
       0.12739044 0.16263634 -0.18883102 -0.13809176
0000d0 6b 37 c6 be 09 6d e1 be e6 09 1f bd 79 c3 11 3d
       -0.38714156 -0.440285 -0.0388278 0.035586808
0000e0 9b 23 8f 3e 7d f0 35 bd 82 38 04 3e 76 82 41 3e
       0.27956852 -0.0444188 0.12912181 0.18897423
0000f0 2b 1a 50 be d1 b4 03 be ea bb a3 be bd 6f b8 3e
       -0.20322482 -0.12861945 -0.31979305 0.3602275
000100 d1 13 87 3d 3a d0 e1 3e 98 9c 1e be 24 65 21 39
       0.065955766 0.44104177 -0.15489423 0.00015391834
000110 b6 ef 2d 3e b0 c4 e9 3d f8 87 d6 3d bf 1c 62 3e
       0.16985974 0.11414468 0.10475153 0.22081278
000120 37 53 d2 bc aa 01 8f be 92 77 5d bc 77 23 75 3d
       -0.025674446 -0.27930957 -0.013517277 0.059848275
000130 13 67 f3 3d 51 1f df bd 38 6d cc be 94 67 72 bc
       0.11884894 -0.10894645 -0.39927077 -0.014795203
000140 3b c4 b3 3e 65 fd 99 3c 3a e3 89 3e e8 84 c0 3d
       0.3511065 0.018797586 0.26931173 0.0940035
000150 d9 70 1b 3e d7 8c 89 3e 49 67 72 3d fa 09 89 3c
       0.15179767 0.26865265 0.05918053 0.01672839
000160 85 e3 b4 bd 85 82 59 3e 26 a4 99 3e 67 15 2b be
       -0.088324584 0.21241195 0.30008048 -0.16707383
000170 8b 7e b0 3c b5 0f b9 3d 17 6e 89 3e 22 8b 00 3e
       0.021544715 0.09036199 0.26841804 0.12553075
000180 bf 30 4d bd c6 a9 b6 3d 35 12 76 be 3d 84 27 3e
       -0.050095316 0.089191005 -0.24030383 0.16359039
000190 cc 16 a9 be d2 64 57 3d 7a de a5 bd a5 dd 17 bd
       -0.33025205 0.052586384 -0.08099075 -0.03707661
0001a0 90 01 4b 3c 8a 55 a4 be 1d 0e 42 3e 58 a2 0a be
       0.012390509 -0.3209651 0.18950696 -0.13538492
0001b0 42 90 7b 3d 0c f3 93 3d a7 86 ff bd 2e 1e 2f be
       0.06141687 0.07224092 -0.12476855 -0.17101356
0001c0 d8 61 0d be e8 1c ba be c6 1d 43 bd ed 71 a8 be
       -0.13806856 -0.3635018 -0.047635816 -0.32899418
0001d0 3a 2b da 3d 4d 88 8d be 8c fc 66 3d b9 ea fb 3d
       0.10652776 -0.27643052 0.05639319 0.12300629
0001e0 4b 2a 70 3d 90 44 70 b7 c1 86 2f 3e 48 a9 b6 3d
       0.058634084 -1.4321078e-05 0.17141248 0.089190066
0001f0 8b 36 98 3e 7e 6b 93 bb 38 a3 6f 3e 47 12 8e 3d
       0.29729113 -0.004498898 0.23402107 0.0693708
000200 b3 b8 7d 3e fb e8 47 3e 36 24 06 3e 13 4f 53 be
       0.24777488 0.19522469 0.13099751 -0.20635633
000210 5c 61 43 3c ad 75 7a be 91 e4 4a 3e 90 28 f7 be
       0.011925068 -0.24458952 0.19813754 -0.48273134
000220 43 44 1a bc 80 bb 95 bc 8f 5a 07 be 98 37 98 3a
       -0.009415689 -0.018277884 -0.13218139 0.0011613248
000230 b5 21 35 3d 30 e1 12 be 9e 10 96 3e 88 f8 1c 3e
       0.0442216 -0.14343715 0.29309553 0.15329182
000240 f7 61 67 3d 21 be 07 3f 1c b0 14 3f d7 49 89 3d
       0.05648991 0.5302449 0.5808122 0.06703537
000250 7a 8d 66 3d 63 2c fa 3d ba 56 25 3e fd b3 5e 3e
       0.056287266 0.12215497 0.16146365 0.21748348
000260 54 96 d1 ba 42 20 ab 3d 59 a3 b6 3e 90 6c a3 be
       -0.0015990236 0.08355762 0.356715 -0.31918764
000270 b3 de 18 be c6 38 b8 bd c2 96 ca bd 75 41 2f 3c
       -0.14928703 -0.08995204 -0.09892036 0.0106967585
000280 73 8c de 3d c7 a3 fd 3c f4 0d 87 3e 08 90 26 3e
       0.10866632 0.030961884 0.26377833 0.16265881
000290 a2 23 94 3e e1 7f 08 be e8 79 ce bd 72 ae 99 be
       0.28933436 -0.13330032 -0.100818455 -0.30015904
0002a0 f6 c5 c6 3e 94 c1 38 3e a9 10 6b be e7 05 52 bd
       0.38822907 0.18042594 -0.22955574 -0.05127516
0002b0 a1 4c e7 3b 50 6a 81 3d 64 b4 0b be 01 70 89 be
       0.0070586954 0.063191056 -0.13643032 -0.26843265
0002c0 4d 53 52 be 1a 67 fd bd 54 45 dd bc 87 05 8f 3e
       -0.20539589 -0.12373181 -0.027010597 0.27933905
0002d0 a2 6d 33 3d cd 58 ba 3e 97 6d 56 3e 28 e5 d6 bc
       0.043805726 0.36395875 0.20940243 -0.026232317
0002e0 96 b1 e8 3e 98 b0 bf be 39 14 82 be 38 b3 bd be
       0.45447987 -0.37439418 -0.25406054 -0.37050796
0002f0 52 99 a5 3e 06 54 16 3e 25 26 4f 3e a5 6c 7c 3e
       0.32343537 0.1468049 0.20229395 0.2465082
000300 00 52 12 bf 6c 09 61 3e 71 88 81 3e 36 5b ab be
       -0.5715637 0.2197625 0.2529941 -0.33468026
000310 91 2b 23 bf 17 e8 92 be 4b 89 ab be ff 0f f3 3d
       -0.6373835 -0.28692695 -0.33503184 0.118682854
000320 8d 48 0e 3d 64 cb fa 3d 45 60 67 bc ea 7a 9b be
       0.03473716 0.12245825 -0.014122074 -0.30367213
000330 e8 29 10 bc e1 c8 2a bd be a2 89 bd 81 92 0a bd
       -0.008799054 -0.04169548 -0.06720494 -0.033831123
000340 33 f4 1f be f9 b8 6f bd 86 cb 91 bc d6 cf 1a be
       -0.15620498 -0.058526013 -0.017797243 -0.15118346
000350 20 37 4d 3d a7 3c 2c bd 39 b7 d6 bd 01 d7 fb 3e
       0.0501014 -0.04205003 -0.10484166 0.49187472
000360 3a bc 6b bd 3b 22 bf 3d f3 69 ee be 69 2d b6 3d
       -0.057552554 0.09332701 -0.46565208 0.0889538
000370 2f 86 78 bd c4 9b bb be a7 53 d0 bd 41 f9 3c be
       -0.060674842 -0.36642277 -0.101722054 -0.18454458
000380 bb a1 f0 3d 9c 2c 86 be 42 d0 97 be b8 68 f3 3d
       0.11749598 -0.2620591 -0.29651076 0.11885208
000390 43 0e 2a 3e bb ca 22 bf 15 70 71 3e b4 16 05 be
       0.16607003 -0.6359059 0.23577912 -0.12996942
0003a0 64 94 9a 3d 8a 7b 43 be b0 02 32 be a8 90 41 be
       0.075478345 -0.19090095 -0.17383838 -0.18902838
0003b0 ca a0 08 bf 2d 55 98 3d 42 33 c5 bc 6e e3 e3 bd
       -0.53370345 0.07438121 -0.024072293 -0.11127363
0003c0 30 5f 24 3e 86 e6 dd 3e 74 39 e3 3d 1f f3 91 bd
       0.16051936 0.43339938 0.11094943 -0.0712645
0003d0 aa 36 20 3e 25 a7 61 3e cc 4e 3f 3e 16 5a 83 be
       0.15645853 0.22036417 0.18682402 -0.25654668
0003e0 55 d1 1b 3d 70 5e 04 3e 7e 1c 0e 3d fc 25 2c be
       0.03804143 0.1292665 0.03469514 -0.16811365
0003f0 ed 16 24 3e a1 fd 82 be 88 f3 17 bf 90 a6 df bd
       0.1602437 -0.25584128 -0.59355974 -0.10920441

rnn.weight_hh_l0 f4 [32, 32]
000000 82 85 64 3d 5a f4 8c be c1 4d 91 bd 6e 63 c0 3b
       0.055791385 -0.27530175 -0.070949085 0.005871228
000010 76 66 85 3e d2 3b e8 3d d0 5a 60 3e e5 dc 21 bb
       0.26054734 0.11339535 0.21909642 -0.0024698314
000020 58 b8 37 3e 34 ef 45 be d6 39 a5 be 73 f7 40 3d
       0.17941415 -0.1932953 -0.32270688 0.047110986
000030 61 e4 8c 3e 23 ae b3 3c 9d 57 00 be 74 26 91 bd
       0.2751799 0.02193362 -0.12533422 -0.070874125
000040 ee 2d 01 3e 3a 3e a0 3c 2b 2f 79 be d1 44 11 bd
       0.12615177 0.019560922 -0.243344 -0.03546602
000050 cc df f6 3d 4f e3 a9 3d 4e b0 a3 3d 4c 4e d9 3d
       0.120544046 0.08295309 0.07992612 0.10610637
000060 6f b6 a1 be 9f 8d 95 3e 1f 03 dd bd c5 75 20 3e
       -0.31584498 0.2920961 -0.10791611 0.15669926
000070 db e3 9a be 31 27 fc 3e aa 93 b9 3e 4e da 78 3e
       -0.30251965 0.4924865 0.3624547 0.24302027
000080 6b a3 2b be c8 b4 a6 3e cf 6d 5e 3c 12 1b 2e 3e
       -0.16761558 0.325598 0.013575985 0.17002514
000090 e8 5f 49 bd f4 d3 17 be 3c 7a 66 bc ea 9d c4 be
       -0.04916373 -0.14826947 -0.014067229 -0.3840173
0000a0 a3 54 59 be 7d d0 a9 be 70 25 a4 3e 17 37 25 3d
       -0.21223693 -0.33166876 0.32059813 0.04033574
0000b0 32 90 8a be d1 f5 a1 3d e6 b8 36 bd 0f 02 3d 3e
       -0.27063137 0.07908214 -0.044609927 0.18457817
0000c0 c1 49 eb 3d 48 f7 0f 3e f3 d9 c5 be f2 28 3c 3d
       0.11488677 0.14059174 -0.38642845 0.045937486
0000d0 44 59 fe bc 45 ca 6f 3e 75 51 35 be 07 f7 83 3d
       -0.031048425 0.23417003 -0.17706855 0.06443601
0000e0 3a 21 29 be a3 9a da 3e 61 42 78 3d 93 a7 38 be
       -0.16516581 0.42696103 0.06061018 -0.18032674
0000f0 be c5 41 3e 8e 29 04 3f 05 0a a4 3e ad ef ac be
       0.18923089 0.5162591 0.32038894 -0.33776608
000100 e4 d0 0e 3e 4f 37 cc 3e 8c c5 60 be 80 59 b2 3e
       0.13946873 0.39885947 -0.21950358 0.34833908
000110 37 be 8f 3e 1d 83 86 be 3d d5 74 be cd ad b7 3e
       0.2807481 -0.26271906 -0.23909469 0.35874787
000120 49 37 aa 3d 02 c3 30 3e 35 4f ce 3e 13 44 78 be
       0.08311326 0.1726189 0.40294805 -0.24244718
000130 34 30 07 3d 43 60 93 be 18 29 6c be 99 73 05 3f
       0.033004954 -0.2878438 -0.23062551 0.52129513
000140 69 61 fc 3e cf 76 09 be 92 9d 2d be 3c 12 91 bd
       0.49293068 -0.13424228 -0.1695464 -0.07083556
000150 e1 fd 25 3f b8 f0 1c 3e 45 0d 3b 3d 30 02 c1 3d
       0.64840513 0.15326202 0.04566695 0.09424245
000160 13 66 90 be a8 97 3a be a7 7f 10 be 14 fb 72 be
       -0.28202876 -0.18221915 -0.14111196 -0.23728591
000170 7e 09 bd 3d 84 e8 ae bb 13 bb 00 bd 90 c7 d8 be
       0.09230326 -0.0053377766 -0.031428408 -0.42339754
000180 e0 91 d7 3d f6 4b c8 bb 3a dd 14 be 07 32 a7 bd
       0.1052587 -0.006112571 -0.14537516 -0.08163839
000190 47 75 91 be 2b bf aa be d4 00 1d 3e 2d c5 0d be
       -0.28409788 -0.33348975 0.15332347 -0.13844748
0001a0 dc b6 99 3b 4d 03 c2 bd 53 e4 47 be 72 53 b9 3d
       0.004690988 -0.09473286 -0.19520693 0.09049119
0001b0 32 8f 8e be 98 a4 a6 3d 0d af c2 3b d7 7f bc 3e
       -0.27843624 0.081368625 0.005941278 0.36816284
0001c0 06 76 1e 3e 6e 5e 1c bd 00 e2 d1 be 84 bc 3d be
       0.1547471 -0.038175993 -0.40992737 -0.18528944
0001d0 aa 60 f1 3e 1d b2 a5 3e e6 51 01 3d d0 9b e6 bd
       0.4714406 0.32362452 0.031572245 -0.112601876
0001e0 c6 4a 20 3d cf 62 95 3e 5c 15 47 3c 81 5d 50 be
       0.03913381 0.29176947 0.012151089 -0.20348169
0001f0 ee 6f 9d be a1 6f 12 3e 0d 45 06 3e 61 9f ab be
       -0.30749458 0.14300396 0.13112278 -0.33520034
000200 6b 79 4d 3e 2e 0e 6a 3d 3d 9e ba bd 98 98 ad bd
       0.20065849 0.05714243 -0.09112213 -0.084763706
000210 02 0c 1e be 7c c4 30 3d 06 79 13 be aa 20 1d 3f
       -0.15434268 0.043156132 -0.14401636 0.61377966
000220 8b e9 ac 3e 73 2e aa bb 60 b0 7d 3e 8a 0b e6 bd
       0.3377193 -0.0051935255 0.24774313 -0.1123267
000230 ae e3 7f be 00 36 d8 be c4 a8 cf bc 30 ef 07 3e
       -0.24989197 -0.422287 -0.025349028 0.13274837
000240 55 ff ef bd a9 e4 db bd 04 a1 ba 3e 7a 28 99 3e
       -0.117186226 -0.10736973 0.3645097 0.29913694
000250 42 bd 8b 3e 78 8b 92 3e e8 31 44 be cf 57 90 3d
       0.2729283 0.2862203 -0.19159663 0.07047998
000260 e1 c7 8e 3e 3d d3 4f be 98 3b 4e be 65 1d c8 be
       0.2788687 -0.20295425 -0.2013992 -0.39084926
000270 fe 39 39 be e9 f7 b1 3e b2 a0 1e be d7 4a af bd
       -0.18088529 0.34759453 -0.15490988 -0.085591964
000280 2f 88 70 be c7 3b 2b be d0 d8 14 3d f3 0c db 3d
       -0.2348945 -0.16722022 0.03633958 0.10695829
000290 f9 de 0d be a6 59 ee 3e d7 62 ce be bd 2e b5 be
       -0.13854589 0.4655277 -0.40309784 -0.3538722
0002a0 c9 b1 08 3e 10 0f 62 3e 47 4e a6 be ea 3e 31 3e
       0.1334907 0.22076058 -0.32481596 0.17309156
0002b0 12 b6 bc bd 9f 3e 02 3e 89 92 b3 3e 6a 28 82 3d
       -0.09214415 0.127192 0.35072735 0.063553646
0002c0 bb 76 39 be 47 ca 37 be d5 a9 e3 3d ea 00 5a bd
       -0.18111698 -0.17948256 0.11116377 -0.053223528
0002d0 5e 27 25 3d 4f 29 6f 3e 98 93 78 3e 4c 74 ca 3d
       0.040320747 0.23355602 0.24275053 0.09885463
0002e0 89 00 95 3d 1b b3 65 be 51 04 04 3e f5 fe fe 3e
       0.07275493 -0.22431605 0.12892272 0.49803892
0002f0 b5 b7 97 3e 7b ac b6 3e d2 17 48 3d 24 5e 09 be
       0.29632345 0.35678467 0.04885084 -0.13414818
000300 cc b9 95 3e c7 38 6a be 99 a6 80 be 2b a9 0c 3e
       0.29243314 -0.22873221 -0.25127104 0.13736407
000310 59 9e 87 bd 0a 3a 0c be 2b 9e b9 3e 94 98 45 bd
       -0.06621999 -0.13694015 0.36253485 -0.048241213
000320 40 9e f3 be f0 a4 cf 3c ad ad 0b 3f 2a 7f 4a be
       -0.47581673 0.025347203 0.54561883 -0.19775072
000330 bd 4d 2d 3d d1 80 8f 3e 62 66 21 be 8c c2 89 bd
       0.042310465 0.28027967 -0.15761712 -0.0672656
000340 22 57 97 3e 5d 0c bc 3e cb 35 f8 bd 56 d5 aa be
       0.29558665 0.36728182 -0.12119635 -0.33365887
000350 8d 05 40 3e a1 72 f8 3c 34 e9 df 3d 17 29 7b bc
       0.18752117 0.030328097 0.10933152 -0.015329621
000360 2f 1b c7 3c eb 2a 2a be e2 4b fc be c0 9b f3 3d
       0.024304954 -0.16617934 -0.49276644 0.11894941
000370 df 2b 0d bb 15 f2 19 3d 09 22 2d 3e f3 25 d2 be
       -0.0021541042 0.037584383 0.16907515 -0.41044578
000380 cc 2e cb bd 9d 86 de bd d6 07 1d bf 17 0b ac 3d
       -0.09921035 -0.10865519 -0.6134008 0.08400553
000390 91 fe ed be a5 e5 63 bd 51 5d a8 3e 72 f7 0d bf
       -0.4648328 -0.055638928 0.32883695 -0.55455697
0003a0 b2 d4 c8 be c7 ac 13 3e f4 30 7c be 32 d5 19 be
       -0.39224774 0.14421378 -0.24628049 -0.15022734
0003b0 fc 1f 9f 3e 1c a2 0f bc ec 9b 23 3e ab f2 19 bf
       0.3107909 -0.008766677 0.15977448 -0.60135907
0003c0 b2 1d a9 3e 39 47 30 be 11 ec 85 3c e1 9c be 3c
       0.33030468 -0.1721467 0.016347917 0.023268165
0003d0 b2 41 0e 3e d5 b5 ca be fe 89 a8 3b 2d 2d b1 3e
       0.13892248 -0.39591852 0.005143403 0.3460478
0003e0 6d 58 e4 bd 1e 54 9c 3d a9 d5 4a 3e aa 5d 02 3e
       -0.111496784 0.076332316 0.19808067 0.12731043
0003f0 27 a1 a8 3e be d9 95 3d 71 d9 02 bd 31 6e e5 bd
       0.3293545 0.07316922 -0.03194565 -0.11202658

rnn.bias_ih_l0 f4 [32]
000000 1c 7c c8 bd 31 98 99 bd b9 8f 42 3d 92 40 65 bd
       -0.09789297 -0.07499731 0.047500346 -0.055969782
000010 cf d2 b4 bd af 9a 57 3e 3b 5c 18 bd e1 ad 7b 3d
       -0.08829271 0.21055101 -0.037197333 0.06144512
000020 04 98 2f be e6 1b 46 3e 5a 3a 89 3e 8f c1 08 3e
       -0.17147833 0.1934658 0.2680233 0.13355087
000030 18 05 24 3d 23 bf 97 bd 2f be 35 be a0 98 92 bc
       0.04004392 -0.07409503 -0.1774833 -0.017895043
000040 4f 9b 71 bc 1a 5c 84 bd 19 01 f1 3c 22 a6 23 be
       -0.014746501 -0.064628795 0.029419469 -0.15981343
000050 13 73 6d bd 0e f8 df 3c 64 53 80 3e 96 a8 50 3e
       -0.05797107 0.027339961 0.25063622 0.2037681
000060 bc dd 3e be 2f 3b 5b bd 09 8d 50 3c 36 a1 81 bd
       -0.18639272 -0.05352324 0.012728938 -0.06329577
000070 91 ec c2 3d e4 aa 03 3d 58 5a 66 be b1 0c 42 bd
       0.09517778 0.032145396 -0.22495401 -0.047375385

rnn.bias_hh_l0 f4 [32]
000000 89 f3 6f 3d 39 60 83 be eb ec 30 be cf 88 8d 3c
       0.058581863 -0.2565935 -0.17277877 0.01727715
000010 f7 80 c4 bc d0 70 30 3e 48 96 4a 3e 95 75 c2 bd
       -0.023987276 0.17230535 0.1978389 -0.09495083
000020 1b 2b 38 be 63 44 57 3e 74 c3 53 3e 3b dd 0e be
       -0.17985193 0.21022181 0.20680028 -0.1395158
000030 8e bd 44 3e 24 30 44 3e e7 9f 54 be 07 b9 7d 3d
       0.19212934 0.19158989 -0.20764123 0.061944034
000040 23 52 2f 3e 88 88 25 be 48 a0 06 be 59 62 74 be
       0.17121176 -0.16165364 -0.1314708 -0.23865642
000050 82 bf d4 3d 7d 52 f3 3d 21 48 8c 3e e3 13 46 bc
       0.1038809 0.11880968 0.2739878 -0.012089702
000060 a6 ac 6b be 8a 5c 76 bd fa 4f 64 be a1 bc 93 3d
       -0.23015079 -0.060146846 -0.22296134 0.072137125
000070 74 6d 2c 3d 23 fe f9 bd a9 48 48 bd bd f2 3b be
       0.04209657 -0.12206676 -0.04889742 -0.18354316

fc.weight f4 [8, 32]
000000 b3 fd a7 be 28 9e 6d 3e 1b 29 78 3e 57 f1 a4 3d
       -0.32810745 0.23204863 0.2423443 0.080538444
000010 4b 7b c6 3f fe 34 e6 be 04 7a 2e bf cb b7 0e bf
       1.5506376 -0.44962305 -0.6815493 -0.55749196
000020 d6 70 42 3f 7e 5e e6 be 34 cc 14 bf d7 29 a9 be
       0.75953424 -0.44993967 -0.5812409 -0.33039734
000030 b8 d1 53 bf 65 b5 e2 3c 3c 0f 57 3e 3f f3 ac be
       -0.8274188 0.027674386 0.21001905 -0.33779332
000040 01 1b b4 be 72 30 85 3e ac c3 94 3e 9e 43 70 3f
       -0.35176852 0.26013523 0.29055536 0.93853176
000050 6d 4e 3f 3e db 09 4b bf 68 bd ba bf 7f e2 a3 be
       0.18682261 -0.79311913 -1.4589052 -0.3200874
000060 22 23 c5 3f 6a d6 02 3f 75 7c 3f 3d fa 52 3e be
       1.5401347 0.5110842 0.04674955 -0.1858634
000070 24 67 0f 3e 40 51 0f 3f 7f 43 66 3c 6e 96 7c bd
       0.14004189 0.5598335 0.014054178 -0.0616669
000080 83 e8 4c 3e 43 e6 65 be 6d 57 78 3e ea a0 5d 3e
       0.20010571 -0.22451119 0.242521 0.21643415
000090 09 23 1e 3e 06 bc af 3e dd 3b 28 be c6 31 1a be
       0.15443052 0.34323138 -0.16429086 -0.1505805
0000a0 b5 e8 f9 3e 78 ba d5 3d 83 65 88 be 39 46 88 be
       0.48810354 0.10435957 -0.26639947 -0.26616076
0000b0 98 8c 86 3e e6 d2 09 be 92 a9 a8 3d ad 6f 88 bd
       0.2627914 -0.13459358 0.08235468 -0.066619255
0000c0 08 70 ab bb fb b1 f3 bd de e6 4f be 3b 2d a9 bc
       -0.005231861 -0.118991815 -0.20302913 -0.02065145
0000d0 82 bc d8 3e 19 b9 4e 3e 14 e1 ed bd 1f 3b 97 3d
       0.4233132 0.20187797 -0.11615196 0.07384323
0000e0 53 f1 32 3e 08 9f 0f 3e a0 a0 a9 3d e6 1b c3 3e
       0.1747487 0.1402551 0.0828259 0.38107222
0000f0 74 33 32 be e9 bd 97 be b5 3b 30 be 12 f4 33 3d
       -0.1740244 -0.29637077 -0.17210276 0.043933935
000100 ee 88 f8 3b bc de 97 be 59 31 23 3d dd fe ec 3e
       0.0075846827 -0.2966212 0.039841983 0.46288195
000110 a2 21 ad 3e 51 7e c1 bd 0f f0 88 be ed d7 5f be
       0.33814722 -0.09447921 -0.2674565 -0.21859713
000120 f7 e9 0f 3f 91 d7 a0 3d d7 e2 85 be 72 52 92 bd
       0.5621638 0.07853616 -0.26149628 -0.071446314
000130 1e 36 e2 be ee 9c 92 be 2a 14 81 bd e4 8e 46 be
       -0.44181913 -0.28635353 -0.06302674 -0.19390446
000140 c1 5c bf 3d 09 cc d8 bb 8e 9a 7b be 1e dc d3 3e
       0.09343863 -0.0066161198 -0.24570677 0.41378874
000150 cd 3e 09 3e a5 e5 1a 3e 97 f0 0f be b4 07 0b 3d
       0.13402863 0.15126665 -0.14056621 0.033942893
000160 3d 78 d6 3e 11 c3 43 bd 06 8a 56 3e f0 19 24 be
       0.4188861 -0.04779345 0.2095109 -0.1602552
000170 5e 7c f5 be de 69 8f be 53 32 bc be 4f 65 6a 3d
       -0.47946447 -0.28010458 -0.36757144 0.05722552
000180 11 02 a5 be fb 20 be bd 67 cc 00 bf 48 a6 5f be
       -0.3222814 -0.09283634 -0.50311893 -0.21840775
000190 80 ff 9d 3c b0 c5 8f 3e 5b cb 47 be 17 74 c3 3e
       0.019286871 0.2808051 -0.19511168 0.38174507
0001a0 f2 6e f7 bd 7d 19 ae bd ab fe 97 3c 26 53 d2 bd
       -0.12081708 -0.08500955 0.018554052 -0.102697656
0001b0 a4 16 b4 3d 7d ad c1 3e 70 61 b2 3e 04 3b d4 bd
       0.08793381 0.37827674 0.34839964 -0.10362819
0001c0 e6 79 57 be 58 d4 cb bd 00 ce cc 3e 0b 9a 99 bd
       -0.21042594 -0.09952611 0.40000916 -0.075000845
0001d0 22 4d 91 bd 43 b5 1c 3d 27 f8 4c 3e 54 b0 32 3e
       -0.0709479 0.038258802 0.20016538 0.17450076
0001e0 48 1b c8 bc 50 83 6f bd 55 c1 d8 3e be 96 b1 3e
       -0.024427071 -0.05847484 0.42335 0.3468532
0001f0 b0 3d b5 3e 83 99 07 be f9 26 36 be 46 b8 ce 3e
       0.35398626 -0.13242154 -0.17788304 0.40374964
000200 0a 20 db bd 85 8a 5e be 32 00 8d bd 77 38 b7 be
       -0.1069947 -0.21732529 -0.06884803 -0.35785267
000210 78 7c 56 be e4 39 96 bd 5b 94 5d 3e f4 b0 95 3e
       -0.20945919 -0.073352605 0.21638624 0.29236567
000220 fb 38 ce be 6d 35 0b 3e ae fa 95 3d ea 8e 22 be
       -0.40277848 0.13594599 0.07323204 -0.1587483
000230 91 1c 98 3c 0f 85 5e 3e 5f 91 9a be fc b8 a0 bd
       0.018568309 0.21730445 -0.30189034 -0.07847783
000240 f8 9c e4 3d 94 17 16 be 4a 28 a3 3c ee b9 69 be
       0.11162752 -0.14657432 0.019916672 -0.22824833
000250 ee 54 b0 be 06 59 a2 be f9 f6 19 3e d1 c0 1f 3e
       -0.34439796 -0.31708544 0.15035619 0.15600897
000260 5d b9 70 bd 51 72 eb 3d 2d cb 8c be 77 e5 7b 3e
       -0.058770526 0.114964135 -0.2749876 0.24599253
000270 95 01 c3 3d 06 34 ac 3c dd 46 0b bc 87 e6 5d be
       0.09521786 0.0210209 -0.008500782 -0.2166997
000280 ee 0f 6f be a9 89 5b 3e 09 d2 dc bd de 78 1e 3d
       -0.2334592 0.21439232 -0.107822485 0.038689487
000290 15 35 19 be 85 44 98 be eb 09 2e 3c ee b1 86 be
       -0.14961655 -0.29739776 0.010622482 -0.26307625
0002a0 19 da 41 be 1b 98 d8 bd 2a b7 20 3a 40 a7 9d 3e
       -0.18930854 -0.10575887 0.0006130809 0.30791664
0002b0 55 a2 90 be fb c8 2e bf 6f 2c 31 bc 57 fb 6e bd
       -0.2824885 -0.6827542 -0.010813816 -0.058345165
0002c0 88 70 47 3d 03 e1 ba 3e ea 99 1b 3d 82 04 f0 3d
       0.048691303 0.36499795 0.03798858 0.1171961
0002d0 e5 c3 25 3e e3 0a 8c bd c1 06 ef 3d 92 4a e1 3d
       0.16188009 -0.06838014 0.1167121 0.11000551
0002e0 ae d0 aa 3c b4 96 97 3e 3c 2d 69 3e 85 71 c7 be
       0.02085146 0.29607165 0.22771162 -0.38953796
0002f0 57 ac 16 3d c9 3c 93 be 2f bc 7c bd 36 b7 67 3d
       0.03678545 -0.28757313 -0.061702903 0.056571208
000300 5e a7 4b 3e 31 d5 39 3d 70 5b 31 3e ef 98 24 bd
       0.19888064 0.04536933 0.17320037 -0.04018491
000310 58 2e 7c be 1a 2c 37 be 7a 46 af 3e 85 dc 4a bd
       -0.24627054 -0.17887917 0.34233457 -0.04952671
000320 50 78 59 be 06 e6 cb be 48 a6 1e 3e 54 f9 9c be
       -0.21237302 -0.3982393 0.15493119 -0.30658972
000330 74 46 9f 3d ca 47 bd 3e e7 f9 83 be af fc af 3d
       0.0777711 0.36968833 -0.25776598 0.085931174
000340 c1 d9 bd bc ab 59 de 3e 8d 09 11 3e e1 98 87 be
       -0.023175122 0.43427786 0.141638 -0.26483825
000350 f6 de 0b be 13 2a 19 3e 65 b2 b1 bd 53 29 d6 be
       -0.13659272 0.14957456 -0.08676604 -0.41828403
000360 e9 be aa bd cb 3e 4d 3e 54 ef 31 be e5 7b 2f be
       -0.083371945 0.20043485 -0.17376453 -0.17137106
000370 fc 6c 55 3d 50 26 be 3e c3 c4 86 3e 0b d4 ba bd
       0.05210589 0.37138605 0.26321992 -0.09122475
000380 3a c4 b1 3c 43 7b 91 3e cf 5f 2c 3e 78 36 f3 3c
       0.021700013 0.28414354 0.16833423 0.029689059
000390 b1 2e 89 3e 7b 4f 25 3e 8f ed 29 3e 68 28 5d bc
       0.26793435 0.161436 0.16594528 -0.013498403
0003a0 85 04 16 3c da ed 09 bd 51 96 a5 3e d0 4a f0 3e
       0.009156351 -0.0336741 0.32341245 0.46932077
0003b0 b0 cc 8f 3d 0e fb 4a be 4b 18 f8 bd cd 2f 91 3e
       0.07021463 -0.19822332 -0.121140085 0.28356782
0003c0 74 95 f6 3c be a1 8a bd 8e b8 b9 bd 03 ce 7e be
       0.030100562 -0.06769131 -0.09068404 -0.24883275
0003d0 6e a3 89 bd 20 93 9c bd 9d 2d 86 3e c8 0a b3 3e
       -0.06720625 -0.07645249 0.26206675 0.34969163
0003e0 3c ea d1 bd ad cb 42 be ac 04 2e be 8d 8e b2 be
       -0.10249755 -0.19023009 -0.1699397 -0.34874383
0003f0 11 d2 d3 bd 48 ea 8d 3e 9b af d9 3e 16 95 57 be
       -0.10342801 0.27717805 0.4251679 -0.21052966

fc.bias f4 [8]
000000 28 9d 10 c0 e2 db 06 3b 98 11 97 be 86 c9 74 3e
       -2.259592 0.0020577838 -0.2950561 0.23905
000010 61 3d d5 3c 98 7a 94 bb 8e f8 0e 3e 35 9a 3a 3e
       0.026030244 -0.004531216 0.13962004 0.18222888
